…
Sanity Checking DataLoader 0:   0%|                                                                                                                             | 0/2 [00:23<?, ?it/s]torch.Size([64, 64, 64, 64])
torch.Size([64, 64, 64, 64])
torch.Size([64, 64, 64, 64])
torch.Size([64, 128, 32, 32])
torch.Size([64, 128, 32, 32])
torch.Size([64, 128, 32, 32])
torch.Size([64, 64, 32, 32])
in_channels: [64, 32, 32, 64, 32, 32, 32]
out_channels: [64, 64, 64, 64, 64, 64, 32, 32]
skip_channels: [64, 160, 160, 128, 96, 96, 96]
DECODER blocks: ModuleList(
  (0): DecoderBlock(
    (conv1): Conv2dReLU(
      (0): Conv2d(128, 64, kernel_size=(3, 3), stride=(1, 1), padding=(1, 1), bias=False)
      (1): BatchNorm2d(64, eps=1e-05, momentum=0.1, affine=True, track_running_stats=True)
      (2): ReLU(inplace=True)
    )
    (attention1): Attention(
      (attention): Identity()
    )
    (conv2): Conv2dReLU(
      (0): Conv2d(64, 64, kernel_size=(3, 3), stride=(1, 1), padding=(1, 1), bias=False)
      (1): BatchNorm2d(64, eps=1e-05, momentum=0.1, affine=True, track_running_stats=True)
      (2): ReLU(inplace=True)
    )
    (attention2): Attention(
      (attention): Identity()
    )
  )
  (1): DecoderBlock(
    (conv1): Conv2dReLU(
      (0): Conv2d(192, 64, kernel_size=(3, 3), stride=(1, 1), padding=(1, 1), bias=False)
      (1): BatchNorm2d(64, eps=1e-05, momentum=0.1, affine=True, track_running_stats=True)
      (2): ReLU(inplace=True)
    )
    (attention1): Attention(
      (attention): Identity()
    )
    (conv2): Conv2dReLU(
      (0): Conv2d(64, 64, kernel_size=(3, 3), stride=(1, 1), padding=(1, 1), bias=False)
      (1): BatchNorm2d(64, eps=1e-05, momentum=0.1, affine=True, track_running_stats=True)
      (2): ReLU(inplace=True)
    )
    (attention2): Attention(
      (attention): Identity()
    )
  )
  (2): DecoderBlock(
    (conv1): Conv2dReLU(
      (0): Conv2d(192, 64, kernel_size=(3, 3), stride=(1, 1), padding=(1, 1), bias=False)
      (1): BatchNorm2d(64, eps=1e-05, momentum=0.1, affine=True, track_running_stats=True)
      (2): ReLU(inplace=True)
    )
    (attention1): Attention(
      (attention): Identity()
    )
    (conv2): Conv2dReLU(
      (0): Conv2d(64, 64, kernel_size=(3, 3), stride=(1, 1), padding=(1, 1), bias=False)
      (1): BatchNorm2d(64, eps=1e-05, momentum=0.1, affine=True, track_running_stats=True)
      (2): ReLU(inplace=True)
    )
    (attention2): Attention(
      (attention): Identity()
    )
  )
  (3): DecoderBlock(
    (conv1): Conv2dReLU(
      (0): Conv2d(192, 64, kernel_size=(3, 3), stride=(1, 1), padding=(1, 1), bias=False)
      (1): BatchNorm2d(64, eps=1e-05, momentum=0.1, affine=True, track_running_stats=True)
      (2): ReLU(inplace=True)
    )
    (attention1): Attention(
      (attention): Identity()
    )
    (conv2): Conv2dReLU(
      (0): Conv2d(64, 64, kernel_size=(3, 3), stride=(1, 1), padding=(1, 1), bias=False)
      (1): BatchNorm2d(64, eps=1e-05, momentum=0.1, affine=True, track_running_stats=True)
      (2): ReLU(inplace=True)
    )
    (attention2): Attention(
      (attention): Identity()
    )
  )
  (4): DecoderBlock(
    (conv1): Conv2dReLU(
      (0): Conv2d(128, 64, kernel_size=(3, 3), stride=(1, 1), padding=(1, 1), bias=False)
      (1): BatchNorm2d(64, eps=1e-05, momentum=0.1, affine=True, track_running_stats=True)
      (2): ReLU(inplace=True)
    )
    (attention1): Attention(
      (attention): Identity()
    )
    (conv2): Conv2dReLU(
      (0): Conv2d(64, 64, kernel_size=(3, 3), stride=(1, 1), padding=(1, 1), bias=False)
      (1): BatchNorm2d(64, eps=1e-05, momentum=0.1, affine=True, track_running_stats=True)
      (2): ReLU(inplace=True)
    )
    (attention2): Attention(
      (attention): Identity()
    )
  )
  (5): DecoderBlock(
    (conv1): Conv2dReLU(
      (0): Conv2d(128, 64, kernel_size=(3, 3), stride=(1, 1), padding=(1, 1), bias=False)
      (1): BatchNorm2d(64, eps=1e-05, momentum=0.1, affine=True, track_running_stats=True)
      (2): ReLU(inplace=True)
    )
    (attention1): Attention(
      (attention): Identity()
    )
    (conv2): Conv2dReLU(
      (0): Conv2d(64, 64, kernel_size=(3, 3), stride=(1, 1), padding=(1, 1), bias=False)
      (1): BatchNorm2d(64, eps=1e-05, momentum=0.1, affine=True, track_running_stats=True)
      (2): ReLU(inplace=True)
    )
    (attention2): Attention(
      (attention): Identity()
    )
  )
  (6): DecoderBlock(
    (conv1): Conv2dReLU(
      (0): Conv2d(128, 32, kernel_size=(3, 3), stride=(1, 1), padding=(1, 1), bias=False)
      (1): BatchNorm2d(32, eps=1e-05, momentum=0.1, affine=True, track_running_stats=True)
      (2): ReLU(inplace=True)
    )
    (attention1): Attention(
      (attention): Identity()
    )
    (conv2): Conv2dReLU(
      (0): Conv2d(32, 32, kernel_size=(3, 3), stride=(1, 1), padding=(1, 1), bias=False)
      (1): BatchNorm2d(32, eps=1e-05, momentum=0.1, affine=True, track_running_stats=True)
      (2): ReLU(inplace=True)
    )
    (attention2): Attention(
      (attention): Identity()
    )
  )
)
features: [torch.Size([64, 64, 32, 32]), torch.Size([64, 128, 32, 32]), torch.Size([64, 128, 32, 32]), torch.Size([64, 128, 32, 32]), torch.Size([64, 64, 64, 64]), torch.Size([64, 64, 64, 64]), torch.Size([64, 64, 64, 64])]
head before going in centerblock: torch.Size([64, 64, 32, 32])
…
